…
/tensorflow/keras-applications/vgg16/vgg16_weights_tf_dim_ordering_tf_kernels.h5\n553467904/553467096 [==============================] - 3s 0us/step\n553476096/553467096 [==============================] - 3s 0us/step\nModel: \"model\"\n_________________________________________________________________\nLayer (type)                 Output Shape              Param #   \n=================================================================\ninput_1 (InputLayer)         [(None, 224, 224, 3)]     0         \n_________________________________________________________________\nblock1_conv1 (Conv2D)        (None, 224, 224, 64)      1792      \n_________________________________________________________________\nblock1_conv2 (Conv2D)        (None, 224, 224, 64)      36928     \n_________________________________________________________________\nblock1_pool (MaxPooling2D)   (None, 112, 112, 64)      0         \n_________________________________________________________________\nblock2_conv1 (Conv2D)        (None, 112, 112, 128)     73856     \n_________________________________________________________________\nblock2_conv2 (Conv2D)        (None, 112, 112, 128)     147584    \n_________________________________________________________________\nblock2_pool (MaxPooling2D)   (None, 56, 56, 128)       0         \n_________________________________________________________________\nblock3_conv1 (Conv2D)        (None, 56, 56, 256)       295168    \n_________________________________________________________________\nblock3_conv2 (Conv2D)        (None, 56, 56, 256)       590080    \n_________________________________________________________________\nblock3_conv3 (Conv2D)        (None, 56, 56, 256)       590080    \n_________________________________________________________________\nblock3_pool (MaxPooling2D)   (None, 28, 28, 256)       0         \n_________________________________________________________________\nblock4_conv1 (Conv2D)        (None, 28, 28, 512)       1180160   \n_________________________________________________________________\nblock4_conv2 (Conv2D)        (None, 28, 28, 512)       2359808   \n_________________________________________________________________\nblock4_conv3 (Conv2D)        (None, 28, 28, 512)       2359808   \n_________________________________________________________________\nblock4_pool (MaxPooling2D)   (None, 14, 14, 512)       0         \n_________________________________________________________________\nblock5_conv1 (Conv2D)        (None, 14, 14, 512)       2359808   \n_________________________________________________________________\nblock5_conv2 (Conv2D)        (None, 14, 14, 512)       2359808   \n_________________________________________________________________\nblock5_conv3 (Conv2D)        (None, 14, 14, 512)       2359808   \n_________________________________________________________________\nblock5_pool (MaxPooling2D)   (None, 7, 7, 512)         0         \n_________________________________________________________________\nflatten (Flatten)            (None, 25088)             0         \n_________________________________________________________________\nfc1 (Dense)                  (None, 4096)              102764544 \n_________________________________________________________________\nfc2 (Dense)                  (None, 4096)              16781312  \n=================================================================\nTotal params: 134,260,544\nTrainable params: 134,260,544\nNon-trainable params: 0\n_________________________________________________________________\nNone\n","output_type":"stream"}]},{"cell_type":"code","source":"# extract features from image\nfeatures = {}\ndirectory = os.path.join(BASE_DIR, 'Images')\n\nfor img_name in tqdm(
…
Output Shape         Param #     Connected to                     \n==================================================================================================\ninput_3 (InputLayer)            [(None, 35)]         0                                            \n__________________________________________________________________________________________________\ninput_2 (InputLayer)            [(None, 4096)]       0                                            \n__________________________________________________________________________________________________\nembedding (Embedding)           (None, 35, 256)      2172160     input_3[0][0]                    \n__________________________________________________________________________________________________\ndropout (Dropout)               (None, 4096)         0           input_2[0][0]                    \n__________________________________________________________________________________________________\ndropout_1 (Dropout)             (None, 35, 256)      0           embedding[0][0]                  \n__________________________________________________________________________________________________\ndense (Dense)                   (None, 256)          1048832     dropout[0][0]                    \n__________________________________________________________________________________________________\nlstm (LSTM)                     (None, 256)          525312      dropout_1[0][0]                  \n__________________________________________________________________________________________________\nadd (Add)                       (None, 256)          0           dense[0][0]                      \n                                                                 lstm[0][0]                       \n__________________________________________________________________________________________________\ndense_1 (Dense)                 (None, 256)          65792       add[0][0]                        \n__________________________________________________________________________________________________\ndense_2 (Dense)                 (None, 8485)         2180645     dense_1[0][0]                    \n==================================================================================================\nTotal params: 5,992,741\nTrainable params: 5,992,741\nNon-trainable params: 0\n__________________________________________________________________________________________________\nNone\n","output_type":"stream"}]},{"cell_type":"code","source":"# plot the model\
…
